modelo_entrenado.pth (torch, 2456 bytes, 3 tensors)

fc1.weight f4 [16, 2]
000000 e7 23 46 3f 9f 9d 52 bf 60 06 65 3e b4 c3 06 3e
       0.7739853 -0.8227176 0.22365713 0.13160592
000010 78 f2 20 bf 36 7a 0a bf be e3 2f 3f 06 e0 ae be
       -0.6286998 -0.5409273 0.6870688 -0.3415529
000020 2a f6 52 3f ec c6 e4 be 33 12 9b be e0 57 ed bc
       0.82406867 -0.44683015 -0.30287322 -0.028972566
000030 b4 c1 e1 be d0 35 e6 be 89 ad 8b 3e d8 f1 2c bf
       -0.44093096 -0.4496293 0.27280834 -0.67556524
000040 ea c1 bd be e8 04 c4 3f 67 d5 07 3f d8 c7 d1 bd
       -0.37062007 1.5313997 0.5306 -0.10243195
000050 bd 00 5d be f7 1e 1a bf 0d 1f ef be 30 29 14 be
       -0.21582313 -0.602035 -0.46703377 -0.14468837
000060 af aa 0b bf 40 54 bf bc c8 08 ff be f0 bc d7 be
       -0.5455732 -0.023355603 -0.49811387 -0.42136335
000070 a1 aa 3d 3f 5b 82 3c bf a6 0f 00 3f 5b 7e 26 bf
       0.74088484 -0.73636407 0.5002388 -0.65036553

fc1.bias f4 [16]
000000 d3 ac 46 3f 79 a2 15 3f 6b b1 10 bf dc f1 a9 3e
       0.7760746 0.5845104 -0.5652072 0.33192337
000010 16 9d 0e 3f b6 26 09 bf e4 e5 de be 2c 83 32 3f
       0.55708444 -0.53574693 -0.43534768 0.697314
000020 0c 1a 32 b9 c3 fa 2f bf 43 b3 5f 3f dc 4c e6 be
       -0.00016985106 -0.68742007 0.87382907 -0.44980514
000030 db 48 95 be 51 81 dc be ae 7b 61 3f cd 89 21 3f
       -0.29157147 -0.4306741 0.88079345 0.6310089

fc2.weight f4 [1, 16]
000000 d5 d8 2c bf 1e 5d ec bc d6 24 45 be 27 fd 1a bf
       -0.6751836 -0.028852995 -0.19252333 -0.6054253
000010 0e df 91 be d8 b5 1e bd 08 3f 1e 3e 7b 9c 69 bf
       -0.2849049 -0.03874764 0.15453732 -0.91254395
000020 e5 06 32 3f 6a 42 67 be 47 10 31 bf 34 e6 56 be
       0.6954177 -0.22583929 -0.6916546 -0.20986253
000030 42 73 38 3e 20 30 f1 bc 5a a1 da be 01 8a 40 bf
       0.18012717 -0.029441893 -0.42701226 -0.7521058
